__________________________________________________________________________________________________
Layer (type)                    Output Shape         Param #     Connected to                     
==================================================================================================
input_341 (InputLayer)          [(None, 200)]        0                                            
__________________________________________________________________________________________________
embedding_140 (Embedding)       (None, 200, 302)     10439234    input_341[0][0]                  
__________________________________________________________________________________________________
spatial_dropout1d_210 (SpatialD (None, 200, 302)     0           embedding_140[0][0]              
__________________________________________________________________________________________________
bidirectional_237 (Bidirectiona (None, 200, 128)     141312      spatial_dropout1d_210[0][0]      
__________________________________________________________________________________________________
conv1d_109 (Conv1D)             (None, 198, 64)      24640       bidirectional_237[0][0]          
__________________________________________________________________________________________________
max_pooling1d_95 (MaxPooling1D) (None, 24, 64)       0           conv1d_109[0][0]                 
__________________________________________________________________________________________________
bidirectional_238 (Bidirectiona (None, 128)          49920       max_pooling1d_95[0][0]           
__________________________________________________________________________________________________
input_342 (InputLayer)          [(None, 100)]        0                                            
__________________________________________________________________________________________________
batch_normalization_271 (BatchN (None, 128)          512         bidirectional_238[0][0]          
__________________________________________________________________________________________________
batch_normalization_272 (BatchN (None, 100)          400         input_342[0][0]                  
__________________________________________________________________________________________________
concatenate_102 (Concatenate)   (None, 228)          0           batch_normalization_271[0][0]    
                                                                 batch_normalization_272[0][0]    
__________________________________________________________________________________________________
dropout_86 (Dropout)            (None, 228)          0           concatenate_102[0][0]            
__________________________________________________________________________________________________
batch_normalization_275 (BatchN (None, 228)          912         dropout_86[0][0]                 
__________________________________________________________________________________________________
dense_163 (Dense)               (None, 64)           14656       batch_normalization_275[0][0]    
__________________________________________________________________________________________________
dropout_87 (Dropout)            (None, 64)           0           dense_163[0][0]                  
__________________________________________________________________________________________________
batch_normalization_276 (BatchN (None, 64)           256         dropout_87[0][0]                 
__________________________________________________________________________________________________
dense_164 (Dense)               (None, 5)            325         batch_normalization_276[0][0]    
==================================================================================================
Total params: 10,672,167
Trainable params: 10,671,127
Non-trainable params: 1,040
__________________________________________________________________________________________________
Epoch 1/100
79/79 [==============================] - 38s 481ms/step - loss: 1.9165 - accuracy: 0.2605 - val_loss: 1.5066 - val_accuracy: 0.3125
…
