…
40/40 [==============================] - 27s 664ms/step - loss: 0.9226 - accuracy: 0.6156 - val_loss: 1.0288 - val_accuracy: 0.5610
Epoch 24/25
40/40 [==============================] - 25s 636ms/step - loss: 0.9325 - accuracy: 0.6145 - val_loss: 0.9934 - val_accuracy: 0.5740
Epoch 25/25
40/40 [==============================] - 27s 663ms/step - loss: 0.9202 - accuracy: 0.6194 - val_loss: 1.0107 - val_accuracy: 0.5860
Model: "sequential_121"
_________________________________________________________________
Layer (type)                 Output Shape              Param #   
=================================================================
embedding_121 (Embedding)    (None, 506, 32)           932608    
_________________________________________________________________
bidirectional_69 (Bidirectio (None, 506, 128)          37632     
_________________________________________________________________
conv1d_134 (Conv1D)          (None, 504, 64)           24640     
_________________________________________________________________
max_pooling1d_128 (MaxPoolin (None, 63, 64)            0         
_________________________________________________________________
bidirectional_70 (Bidirectio (None, 128)               49920     
_________________________________________________________________
dense_230 (Dense)            (None, 64)                8256      
_________________________________________________________________
batch_normalization_176 (Bat (None, 64)                256       
_________________________________________________________________
dropout_93 (Dropout)         (None, 64)                0         
_________________________________________________________________
dense_231 (Dense)            (None, 5)                 325       
=================================================================
Total params: 1,053,637
Trainable params: 120,901
Non-trainable params: 932,736
_________________________________________________________________
None
<tensorflow.python.keras.callbacks.History object at 0x179d1efd0>
6/6 [==============================] - 1s 184ms/step - loss: 1.0097 - accuracy: 0.5793
score: 1.01
acc: 0.58