_________________________________________________________________
Layer (type)                 Output Shape              Param #   
=================================================================
embedding_71 (Embedding)     (None, 443, 32)           722400    
_________________________________________________________________
bidirectional_21 (Bidirectio (None, 443, 128)          37632     
_________________________________________________________________
conv1d_71 (Conv1D)           (None, 441, 64)           24640     
_________________________________________________________________
max_pooling1d_68 (MaxPooling (None, 55, 64)            0         
_________________________________________________________________
bidirectional_22 (Bidirectio (None, 128)               49920     
_________________________________________________________________
batch_normalization_117 (Bat (None, 128)               512       
_________________________________________________________________
dense_134 (Dense)            (None, 64)                8256      
_________________________________________________________________
batch_normalization_118 (Bat (None, 64)                256       
_________________________________________________________________
dropout_44 (Dropout)         (None, 64)                0         
_________________________________________________________________
dense_135 (Dense)            (None, 6)                 390       
=================================================================
Total params: 844,006
Trainable params: 843,622
Non-trainable params: 384
_________________________________________________________________
None
test pad :  2000
start training
Epoch 1/25
79/79 [==============================] - 27s 341ms/step - loss: 2.2221 - accuracy: 0.2844 - val_loss: 1.5440 - val_accuracy: 0.4355
Epoch 2/25
…
