…
79/79 [==============================] - 30s 376ms/step - loss: 1.0376 - accuracy: 0.5710 - val_loss: 1.0877 - val_accuracy: 0.5400
Epoch 13/25
79/79 [==============================] - 30s 379ms/step - loss: 1.0348 - accuracy: 0.5724 - val_loss: 1.0797 - val_accuracy: 0.5495
Epoch 14/25
79/79 [==============================] - 29s 370ms/step - loss: 0.9836 - accuracy: 0.5956 - val_loss: 1.2129 - val_accuracy: 0.5010
Model: "sequential_69"
_________________________________________________________________
Layer (type)                 Output Shape              Param #   
=================================================================
embedding_69 (Embedding)     (None, 443, 32)           722400    
_________________________________________________________________
bidirectional_17 (Bidirectio (None, 443, 128)          49664     
_________________________________________________________________
conv1d_69 (Conv1D)           (None, 441, 64)           24640     
_________________________________________________________________
max_pooling1d_66 (MaxPooling (None, 55, 64)            0         
_________________________________________________________________
bidirectional_18 (Bidirectio (None, 128)               49920     
_________________________________________________________________
batch_normalization_113 (Bat (None, 128)               512       
_________________________________________________________________
dense_130 (Dense)            (None, 64)                8256      
_________________________________________________________________
batch_normalization_114 (Bat (None, 64)                256       
_________________________________________________________________
dropout_42 (Dropout)         (None, 64)                0         
_________________________________________________________________
dense_131 (Dense)            (None, 6)                 390       
=================================================================
Total params: 856,038
Trainable params: 133,254
Non-trainable params: 722,784
_________________________________________________________________
None
<tensorflow.python.keras.callbacks.History object at 0x181682748>
24/24 [==============================] - 2s 92ms/step - loss: 1.2226 - accuracy: 0.4967
score: 1.22
acc: 0.50