…
79/79 [==============================] - 11s 137ms/step - loss: 1.3726 - accuracy: 0.4134 - val_loss: 1.3151 - val_accuracy: 0.4390
Epoch 24/25
79/79 [==============================] - 11s 135ms/step - loss: 1.3546 - accuracy: 0.4298 - val_loss: 1.2800 - val_accuracy: 0.4630
Epoch 25/25
79/79 [==============================] - 11s 134ms/step - loss: 1.3479 - accuracy: 0.4224 - val_loss: 1.3175 - val_accuracy: 0.4605
Model: "sequential_78"
_________________________________________________________________
Layer (type)                 Output Shape              Param #   
=================================================================
embedding_78 (Embedding)     (None, 980, 32)           144128    
_________________________________________________________________
spatial_dropout1d_5 (Spatial (None, 980, 32)           0         
_________________________________________________________________
conv1d_78 (Conv1D)           (None, 978, 128)          12416     
_________________________________________________________________
max_pooling1d_75 (MaxPooling (None, 122, 128)          0         
_________________________________________________________________
bidirectional_33 (Bidirectio (None, 128)               74496     
_________________________________________________________________
batch_normalization_129 (Bat (None, 128)               512       
_________________________________________________________________
dense_146 (Dense)            (None, 64)                8256      
_________________________________________________________________
batch_normalization_130 (Bat (None, 64)                256       
_________________________________________________________________
dropout_50 (Dropout)         (None, 64)                0         
_________________________________________________________________
dense_147 (Dense)            (None, 6)                 390       
=================================================================
Total params: 240,454
Trainable params: 95,942
Non-trainable params: 144,512
_________________________________________________________________
None
<tensorflow.python.keras.callbacks.History object at 0x17b4f46a0>
24/24 [==============================] - 1s 30ms/step - loss: 1.3129 - accuracy: 0.4620
score: 1.31
acc: 0.46