X_train_len :  7000
shape of X_train_pad :  (5000, 443)
shape of Y_train :  (5000, 6)
shape of X_test_pad :  (2000, 443)
shape of Y_test  :  (2000, 6)
Model: "sequential_67"
_________________________________________________________________
Layer (type)                 Output Shape              Param #   
=================================================================
embedding_67 (Embedding)     (None, 443, 32)           722400    
_________________________________________________________________
bidirectional_11 (Bidirectio (None, 443, 200)          106400    
_________________________________________________________________
bidirectional_12 (Bidirectio (None, 443, 200)          240800    
_________________________________________________________________
conv1d_67 (Conv1D)           (None, 441, 64)           38464     
_________________________________________________________________
max_pooling1d_64 (MaxPooling (None, 55, 64)            0         
_________________________________________________________________
bidirectional_13 (Bidirectio (None, 128)               49920     
_________________________________________________________________
batch_normalization_109 (Bat (None, 128)               512       
_________________________________________________________________
dense_126 (Dense)            (None, 64)                8256      
_________________________________________________________________
batch_normalization_110 (Bat (None, 64)                256       
_________________________________________________________________
dropout_40 (Dropout)         (None, 64)                0         
_________________________________________________________________
dense_127 (Dense)            (None, 6)                 390       
=================================================================
Total params: 1,167,398
Trainable params: 444,614
Non-trainable params: 722,784
_________________________________________________________________
None
test pad :  2000
start training
Epoch 1/25
79/79 [==============================] - 95s 1s/step - loss: 1.9636 - accuracy: 0.3380 - val_loss: 1.4789 - val_accuracy: 0.4480
Epoch 2/25
…
