…
79/79 [==============================] - 55s 693ms/step - loss: 0.9284 - accuracy: 0.6196 - val_loss: 1.2823 - val_accuracy: 0.5155
Epoch 24/25
79/79 [==============================] - 55s 702ms/step - loss: 0.9058 - accuracy: 0.6186 - val_loss: 1.0898 - val_accuracy: 0.5560
Epoch 25/25
79/79 [==============================] - 54s 679ms/step - loss: 0.8774 - accuracy: 0.6334 - val_loss: 1.1029 - val_accuracy: 0.5480
Model: "sequential_66"
_________________________________________________________________
Layer (type)                 Output Shape              Param #   
=================================================================
embedding_66 (Embedding)     (None, 443, 32)           722400    
_________________________________________________________________
bidirectional_8 (Bidirection (None, 443, 128)          37632     
_________________________________________________________________
bidirectional_9 (Bidirection (None, 443, 64)           31104     
_________________________________________________________________
conv1d_66 (Conv1D)           (None, 441, 64)           12352     
_________________________________________________________________
max_pooling1d_63 (MaxPooling (None, 55, 64)            0         
_________________________________________________________________
bidirectional_10 (Bidirectio (None, 128)               49920     
_________________________________________________________________
batch_normalization_107 (Bat (None, 128)               512       
_________________________________________________________________
dense_124 (Dense)            (None, 64)                8256      
_________________________________________________________________
batch_normalization_108 (Bat (None, 64)                256       
_________________________________________________________________
dropout_39 (Dropout)         (None, 64)                0         
_________________________________________________________________
dense_125 (Dense)            (None, 6)                 390       
=================================================================
Total params: 862,822
Trainable params: 140,038
Non-trainable params: 722,784
_________________________________________________________________
None
<tensorflow.python.keras.callbacks.History object at 0x17db7e390>
24/24 [==============================] - 3s 130ms/step - loss: 1.0967 - accuracy: 0.5493
score: 1.10
acc: 0.55